modelo_p3_contest.pth (torch, 410720 bytes, 4 tensors)

weight f4 [128, 784]
0	0xbcd71c21	-0.02625853
1	0x3be596ae	0.007006488
2	0xbb789413	-0.0037930056
3	0xbd026363	-0.031833064
4	0xbcc38c97	-0.02387075
5	0xbcc3a5e3	-0.023882812
6	0x3c544077	0.012954823
7	0x3cc05027	0.02347572
8	0xbd0275cb	-0.031850617
9	0xbc62f278	-0.013851754
10	0xbce1760c	-0.02752211
11	0xbc86bf45	-0.016448626
12	0xbd0680ae	-0.032837562
13	0x3cfea8b1	0.031086298
14	0xbca635ca	-0.02028932
15	0xbc29e9a0	-0.010370642
16	0xbc785745	-0.015157525
17	0x3ce1ea05	0.02757741
18	0x3c001ba5	0.007819091
19	0xbc94c027	-0.018158032
20	0x3cde9411	0.027170213
21	0xbc5ac861	-0.013353438
22	0x3bc59577	0.0060297805
23	0xbbfb9e65	-0.007678794
24	0xbcf54bb3	-0.029943323
25	0xbbde39dc	-0.0067817997
26	0x3d010135	0.03149529
27	0xbcd1620e	-0.025559451
28	0x3cbeded7	0.023299618
29	0x3cd40833	0.025882816
30	0x3c1a2dbc	0.009410318
31	0xbbdb6df8	-0.006696459
32	0x3d0444b7	0.032292094
33	0xbcb4dc97	-0.022077842
34	0xbac1a893	-0.001477497
35	0xbb6e7f3e	-0.003639176
36	0x3cc405c7	0.023928536
37	0xbd3dbefb	-0.04632471
38	0xbcccb56a	-0.024988849
39	0x3c950f1d	0.018195683
40	0x3922f462	0.00015540564
41	0xbd330f75	-0.043715913
42	0xbd2c5601	-0.042074207
43	0x3c9f5ec3	0.019454366
44	0xbd0a1dac	-0.033719704
45	0xbc40d230	-0.011768863
46	0x3d8e6d40	0.069544315
47	0x3dea1ffa	0.1143188
48	0x3cfd5a6f	0.030926911
49	0x3d9d8cf1	0.07692898
50	0x3da8dc8e	0.082451925
51	0xbc189eaa	-0.009315172
52	0xbb87fd8a	-0.0041500973
53	0xbce5c14c	-0.028046273
54	0xb9e59125	-0.00043786425
55	0xbcfe060a	-0.031008739
56	0x3bc70581	0.006073654
57	0x3d04f73d	0.032462347
58	0x3cd1b97a	0.025601137
59	0x3b8b04d5	0.0042425194
60	0x3d1c59eb	0.03817169
61	0xbd3ca454	-0.046055153
62	0xbd5f9231	-0.05458278
63	0xbc77a267	-0.015114403
64	0xbd7e5ecd	-0.062102128
65	0xbd44d217	-0.04805192
66	0xbdb0ecb1	-0.08638895
67	0xbdf3bc1b	-0.11901113
68	0xbda022e8	-0.07819158
69	0xbdbdb48b	-0.092629515
70	0xbdfa8a64	-0.12233427
71	0xbd7bc9b8	-0.06147167
72	0x3dfb1e31	0.12261618
73	0x3e3b2c7b	0.18278687
74	0x3e0d598e	0.13803694
75	0x3d80a890	0.06282151
76	0x3d0cd8fa	0.034386612
77	0x3cc82430	0.024431318
78	0x3d3ca988	0.046060115
79	0x3d33dd77	0.043912377
80	0xbc558169	-0.013031342
81	0xbd5bdf2f	-0.05367964
82	0xbcd19e45	-0.025588164
83	0x3d117d0c	0.035519645
84	0x3b996fca	0.0046825157
85	0x3c86f0b3	0.016472196
86	0xbd9cef80	-0.076628685
87	0x3d9eb7b1	0.0774988
88	0x3d554fbe	0.052078
89	0x3d737586	0.05943825
90	0xbd2db4d8	-0.042408794
91	0xbc927e69	-0.017882543
92	0x3bbf0832	0.0058298344
93	0xbd7c3583	-0.06157447
94	0xbd835c27	-0.06414061
95	0xbd88b274	-0.06674662
96	0xbced1792	-0.028941903
97	0x3d44969b	0.04799519
98	0x3d3a4718	0.045477957
99	0x3df0c04d	0.117554285
100	0x3d83b656	0.06431262
101	0x3dfc82fc	0.12329671
102	0x3e4e41c7	0.2014228
103	0x3dfe9b33	0.12431946
104	0x3dbfcb82	0.09364988
105	0x3d7bd750	0.061484635
106	0x3d820f12	0.06350531
107	0x3d89763d	0.06712005
108	0x3cf2b900	0.02962923
109	0x3d6c6206	0.05771067
110	0x3da0452d	0.07825694
111	0x3cdea401	0.027177813
112	0x3b0e96ca	0.0021757358
113	0x3ce07d49	0.02740349
114	0xbde2a684	-0.110669166
115	0x3dffd68e	0.12492095
116	0xbd5ea4c9	-0.05435637
117	0xbdc1bdf6	-0.0946006
118	0xbe11401f	-0.14184617
119	0xbdfd9508	-0.12381941
120	0xbcd9e32a	-0.026597578
121	0x3ca28aee	0.019841637
122	0x3d818894	0.06324878
123	0x3d465f43	0.048430692
124	0x3ddd604e	0.10809384
125	0x3d386536	0.045018397
126	0x3dbe2b6c	0.09285626
127	0x3e55ee83	0.20891766
128	0x3e744778	0.23855388
129	0x3e4ce393	0.20008688
130	0x3e315774	0.17318517
131	0x3e1d7fb0	0.1538074
132	0x3d1fb183	0.038987648
133	0x3d364152	0.044495888
134	0x3ce0daf6	0.027448159
135	0x3d69c429	0.05707184
136	0x3c50ba84	0.012739781
137	0x3d1a33e6	0.03764715
138	0x3dae882c	0.085220665
139	0x3d899355	0.067175545
140	0xbb978ca5	-0.0046249204
141	0xbcf9f5c3	-0.030512696
142	0x3c6706f2	0.014100777
143	0x3dabd73c	0.08390662
144	0xbdfb08c0	-0.12257528
145	0xbdbc60f1	-0.091981776
146	0xbd8cf00b	-0.06881722
147	0xbce6ebe5	-0.028188655
148	0xbd99ae7e	-0.07503985
149	0xbd318214	-0.043336943
150	0x3d5bb9e6	0.053644083
151	0x3d7e1472	0.062031217
152	0x3d1b32b9	0.03789017
153	0x3d7cfad6	0.061762653
154	0x3d3c0a0e	0.045908026
155	0x3db776e8	0.089582264
156	0x3dc631d5	0.096774735
157	0x3e0eeb58	0.13956964
158	0x3e1187e0	0.14211988
159	0x3e49f7c4	0.19723421
160	0x3e45643b	0.19276516
161	0x3e2da1a2	0.1695619
162	0x3dc2d7c5	0.09513811
163	0xbc1f6f2d	-0.009731096
164	0x3d471451	0.04860336
165	0x3dde93a4	0.10868004
166	0x3e4115a8	0.18855917
167	0xbb1a6db2	-0.0023563919
168	0x3cc93dd5	0.024565617
169	0x3dcbfb61	0.09960056
170	0xbd986801	-0.07441712
171	0xbde5490a	-0.11195572
172	0xbddbd1d7	-0.10733383
173	0xbde2541e	-0.110512
174	0xbd2a7bdb	-0.041622024
175	0xbd92f676	-0.07175915
176	0xbcb539bf	-0.022122262
177	0xbd8c9766	-0.068648145
178	0xbdc5f11a	-0.09665127
179	0xbd0d4b05	-0.034495372
180	0xbcf14c0b	-0.029455205
181	0x3d152e56	0.036421143
182	0x3d59da55	0.053186733
183	0x3e01e88d	0.12686367
184	0x3dbe23d4	0.092841774
185	0x3e0aa677	0.13540064
186	0x3dc697f0	0.096969485
187	0x3dda9df2	0.10674657
188	0x3defe629	0.117138214
189	0x3ce236c4	0.027614005
190	0x3d972327	0.07379752
191	0x3d7eefa0	0.062240243
192	0x3de81882	0.113327995
193	0x3de8beb7	0.11364501
194	0x3d5f08c0	0.054451704
195	0xbc7f264e	-0.015573097
196	0xbc9d7cc5	-0.019224534
197	0x3c3a3d18	0.011367105
198	0xbdf533b6	-0.11972754
199	0xbdc2c17f	-0.09509563
200	0xbdf55668	-0.11979371
201	0xbd999217	-0.074985676
202	0xbdbfe32c	-0.093695015
203	0xbe0ac227	-0.13550626
204	0xbc2f1f4e	-0.010688616
205	0xbd9aef20	-0.07565141
206	0xbd4351e0	-0.047685504
207	0xbcd8014e	-0.02636781
208	0x3cf6cde3	0.030127471
209	0x3d2b8140	0.04187131
210	0x3d951d51	0.07280982
211	0x3e006241	0.12537481
212	0x3dd6b701	0.10484124
213	0x3dc4a510	0.09601796
214	0x3e0ba8e8	0.13638651
215	0x3e07314e	0.13202402
216	0x3df0fa9a	0.117665485
217	0x3dc860c1	0.09784079
218	0x3e1c0ede	0.15240046
219	0x3dda1049	0.106476374
220	0xbc99e177	-0.018784268
221	0xbd5f45f0	-0.054510057
222	0xbcf0a5d6	-0.029375952
223	0x3d9aac94	0.07552448
224	0xbc3bd17c	-0.011463519
225	0xbc1e9aa0	-0.00968042
226	0xbdc7c13d	-0.09753654
227	0xbda68ade	-0.081319556
228	0xbe0799ec	-0.1324231
229	0xbe04cdc8	-0.12969124
230	0xbd11efd2	-0.0356291
231	0xbd89e895	-0.067338146
232	0xbcd02d53	-0.025412237
233	0x3c93ea50	0.018056065
234	0xbc0a07d8	-0.008424722
235	0x3c65a8bd	0.014017281
236	0x3c6bd4f8	0.014394037
237	0x3d8a8275	0.06763164
238	0x3cf17ecc	0.029479407
239	0x3cc4a4fc	0.024004452
240	0x3d9be5d7	0.07612198
241	0x3db6f8be	0.089341626
242	0x3c9f18b4	0.019420959
243	0x3cd7cd81	0.02634311
244	0x3d6ef137	0.05833551
245	0x3e025adf	0.12729977
246	0x3dea08cd	0.1142746
247	0x3d82f248	0.06393868
248	0x3db017ae	0.085982665
249	0x3b8dea21	0.004330889
250	0x3ddbdac1	0.10735083
251	0x3dca107a	0.09866424
252	0xbcf885a8	-0.03033717
253	0xbd19563e	-0.037435763
254	0xbdaeba87	-0.08531671
255	0xbd7528d5	-0.059853394

bias f4 [128]
0	0xbd93d722	-0.07218768
1	0xbd5ea9dc	-0.05436121
2	0x3d0af944	0.033929124
3	0xbc9b378d	-0.018947387
4	0x3e50f4b2	0.20405844
5	0xbe3ad323	-0.18244605
6	0x3d8b9df7	0.06817239
7	0xbc575d7c	-0.013144847
8	0x3e22146f	0.15828107
9	0x3bedb06f	0.0072536985
10	0x3d898de2	0.06716515
11	0xbd84de68	-0.06487733
12	0xbb81a307	-0.003956202
13	0xbd960805	-0.07325748
14	0x3e7b0fa2	0.24517682
15	0xbe0d9538	-0.13826454
16	0xbd9022f4	-0.07037917
17	0x3b8ec0b9	0.0043564704
18	0xbd078090	-0.03308159
19	0xbd289e34	-0.0411665
20	0x3e43b7b3	0.19113044
21	0x3cbbe9c4	0.022938617
22	0x3e0ea33a	0.13929453
23	0xba5bf2df	-0.00083903776
24	0xbd1d80ed	-0.03845303
25	0x3c9f7453	0.019464647
26	0x3d495422	0.0491525
27	0xbdc176e4	-0.09446505
28	0x3dd97f63	0.1062
29	0xbb42b5bb	-0.002971037
30	0xbdedc09c	-0.11609003
31	0x3ce793d1	0.028268727
32	0xbbca6c2c	-0.006177446
33	0xbce33b97	-0.027738376
34	0xbdfbaf7f	-0.122893326
35	0x3d9c6182	0.07635786
36	0x3dd0126d	0.101597644
37	0x3cdf0b72	0.027227137
38	0xbd3810b8	-0.04493782
39	0x3dc30b62	0.095236555
40	0x3c61535c	0.013752785
41	0x3e1c02b3	0.15235405
42	0xbd6fad82	-0.05851508
43	0x3c6f39a7	0.014601148
44	0x3daf064e	0.085461244
45	0x3d142295	0.036165792
46	0xbd0a7dd9	-0.033811424
47	0x3d858082	0.065186515
48	0xbd23b51f	-0.039967652
49	0x3e204ee6	0.15655097
50	0x3ddb0937	0.10695117
51	0xbe0e16dc	-0.13875908
52	0x3de3a776	0.11115925
53	0x3e09231a	0.13392296
54	0xbd8ab68a	-0.06773098
55	0x3e2e7395	0.17036279
56	0xbc7f2893	-0.0155736385
57	0xbdb0fbad	-0.08641753
58	0x3e2439a4	0.16037613
59	0xbb8e15a9	-0.004336078
60	0x3ca9070d	0.020633245
61	0x3dd478f0	0.103746295
62	0x3dbfd04a	0.093659
63	0x3cebd195	0.02878646
64	0xbe1f4b46	-0.15556058
65	0x3db87e70	0.09008491
66	0x3e1f1f12	0.15539196
67	0x3c7e7834	0.015531588
68	0xbca30421	-0.01989943
69	0x3c53bf21	0.012923987
70	0x3e2a6bea	0.16642728
71	0x3ccc9d54	0.024977364
72	0xba89360c	-0.0010468378
73	0x3c5e4e0d	0.013568413
74	0x3d9eab88	0.07747561
75	0x3da394f2	0.079873934
76	0x3d8fe014	0.070251614
77	0xbe0c6787	-0.13711368
78	0x3adab286	0.0016685284
79	0xbc4b74fd	-0.012418029
80	0xbd0c0325	-0.034182686
81	0x3e0739c5	0.13205631
82	0xbd452577	-0.048131432
83	0x3ca69928	0.020336702
84	0x3c7ccc09	0.015429505
85	0x3c344b1a	0.011004234
86	0x3e5e8071	0.21728684
87	0x3d14ae9f	0.036299344
88	0x3e2b70fd	0.1674232
89	0x3dba2d85	0.090907134
90	0xbd8df4ef	-0.06931483
91	0x3d2d643f	0.04233193
92	0x3de124c1	0.109933384
93	0xbe3e480a	-0.18582168
94	0x3e17eff8	0.14837635
95	0x3e471a12	0.19443539
96	0x3e0987a6	0.13430652
97	0xbe59c073	-0.2126482
98	0x3e302135	0.17200167
99	0x3d1c285b	0.038124423
100	0x3e478c7c	0.19487184
101	0xbd170eb1	-0.036879245
102	0xbd60db61	-0.054896716
103	0x3da67368	0.08127481
104	0x3d7318de	0.059349887
105	0x3ca9889f	0.020695029
106	0xbc5d70d2	-0.013515668
107	0xbcad6d78	-0.021170363
108	0x3d34f3b1	0.044177715
109	0x3d57d065	0.052688975
110	0xbcc39008	-0.02387239
111	0xbe0c9a16	-0.13730654
112	0x3d05e71e	0.032691114
113	0x3b9bc9f5	0.0047542998
114	0x3dc2a9f6	0.09505074
115	0xbd9fe43c	-0.07807204
116	0xbdee4303	-0.11633875
117	0x3cd62182	0.026139025
118	0x3d400a36	0.046884738
119	0xbcc2d620	-0.023783743
120	0x3cbd3575	0.02309678
121	0x3d94856f	0.07252013
122	0x3d333d21	0.04375947
123	0x3e70501a	0.23468056
124	0xbd25865f	-0.04041135
125	0x3e249c3e	0.16075227
126	0xbcc9f55f	-0.024653135
127	0xbdb7aacd	-0.089681245

weight f4 [10, 128]
0	0x3df71573	0.12064638
1	0xbc6ad7b0	-0.0143336505
2	0x3d94fed4	0.07275167
3	0xbdbe6a40	-0.09297609
4	0xbc879280	-0.016549349
5	0x3e590d6c	0.21196526
6	0x3d060d2f	0.032727417
7	0xbda0536f	-0.07828414
8	0x3d975cbe	0.07390736
9	0xbd37375e	-0.044730537
10	0xbe4e03cc	-0.20118636
11	0xbe7209d3	-0.2363656
12	0xbd8d920a	-0.0691262
13	0x3da8b2d3	0.08237233
14	0x3e705b64	0.23472363
15	0xbd84f28f	-0.06491577
16	0x3e26a2d6	0.16273054
17	0x3e9b2b1f	0.30306336
18	0xbbad49b5	-0.0052883276
19	0x3d917a5b	0.071034156
20	0xbec4657e	-0.38358682
21	0x3cef8ae5	0.029241035
22	0xbb642d7b	-0.0034817148
23	0xbe50f735	-0.20406802
24	0x3d6d9cbe	0.05801081
25	0x3df85bf7	0.12126916
26	0xbc6b8db9	-0.014377051
27	0xbd8990ef	-0.06717097
28	0xbeb48492	-0.35257393
29	0xbe26cf68	-0.16290057
30	0x3e032ab4	0.12809259
31	0xbdfcf78b	-0.123519026
32	0xbcb2352d	-0.021753872
33	0x3e272fa2	0.16326764
34	0xbc2371fd	-0.009975907
35	0xbe8d9e6a	-0.27659923
36	0x3dea2738	0.11433262
37	0xbe70d741	-0.23519613
38	0x3d33470d	0.04376893
39	0xbeffcaa0	-0.49959278
40	0x3da1a596	0.07892911
41	0x3ced24d4	0.028948225
42	0x3e1880dd	0.14892907
43	0x3e070a2f	0.13187478
44	0x3d0e4dde	0.03474223
45	0x3df35ac3	0.11882546
46	0xbe9a487a	-0.3013342
47	0x3d637a63	0.05553664
48	0x3e130197	0.14356075
49	0xbe705ee0	-0.23473692
50	0xbe015c44	-0.12632853
51	0x3dc0b943	0.09410336
52	0xbe38c22f	-0.18042825
53	0x3c38410d	0.011245978
54	0x3dc8516b	0.09781154
55	0x3df2354e	0.11826573
56	0x3e05ebdb	0.13078253
57	0x3e6852ef	0.22687887
58	0xbcaf69b8	-0.021412715
59	0xbe2277f0	-0.15866065
60	0xbe559f33	-0.20861511
61	0xbcbe7cec	-0.023252927
62	0xbca01c52	-0.019544754
63	0x3c7ffa12	0.015623586
64	0xbc5e9ff0	-0.013587937
65	0x3e64f8ed	0.22360583
66	0xbe69251b	-0.22768061
67	0xbc367c72	-0.0111380685
68	0xbd91290f	-0.070879094
69	0x3d68e7c9	0.056861673
70	0xbdbf30d3	-0.09335484
71	0x3d815b7d	0.06316278
72	0xbd64fd59	-0.055905674
73	0xbf20815a	-0.62697375
74	0xbe41fae9	-0.18943371
75	0x3d3fa700	0.046790123
76	0xbedda9c9	-0.43293598
77	0x3d47cafe	0.048777573
78	0x3d2d227e	0.042269222
79	0x3e169cb3	0.14708214
80	0x3db948f0	0.09047115
81	0xbe642213	-0.22278623
82	0x3e0ba268	0.13636172
83	0xbcda8788	-0.026675954
84	0x3d027325	0.03184809
85	0xbeca85bd	-0.3955516
86	0x3cde02d8	0.027100965
87	0xbeaceed2	-0.33775955
88	0xbe3cd957	-0.18442284
89	0xbe3408fb	-0.17581551
90	0xbcbf5744	-0.023357041
91	0xbed59c50	-0.4172082
92	0xbd7cdfab	-0.061736744
93	0x3e224f78	0.15850627
94	0x3db1470f	0.086561315
95	0x3cd94a9d	0.026524836
96	0x3e5ddff7	0.21667467
97	0xbe04f1f0	-0.12982917
98	0xbd6479d4	-0.055780247
99	0xbdaeab8d	-0.085288145
100	0xbef16bb9	-0.47152498
101	0x3c430ff5	0.01190566
102	0x3e091296	0.13385996
103	0x3e48e48b	0.19618432
104	0x3d6acb9f	0.057323094
105	0xbd97c01e	-0.0740969
106	0x3d65b92b	0.056084793
107	0xbdfb8ad9	-0.122823425
108	0xbe9c7640	-0.30558968
109	0x3d10f96b	0.035394114
110	0xbdc8c965	-0.09804038
111	0xbebf7aa3	-0.37398252
112	0x3e0ecb26	0.13944682
113	0xbf10ab33	-0.5651123
114	0x3e12b2f3	0.14326076
115	0x3e01937c	0.12653917
116	0xbe34a39d	-0.17640539
117	0xbe16576b	-0.14681785
118	0xbe2aeb69	-0.16691364
119	0xbcb917a5	-0.022594282
120	0x3db4ec81	0.08834172
121	0x3e81a26d	0.25319234
122	0x3e1c1529	0.15242447
123	0xbe3bc12c	-0.18335408
124	0xbee2b771	-0.4428058
125	0xbf00250d	-0.50056535
126	0xbcd78ae5	-0.026311347
127	0xbde6a938	-0.11262745
128	0x3cb4176a	0.021983821
129	0xbd542bc0	-0.051799536
130	0x3eb6eaf0	0.35726118
131	0x3e44c8e9	0.19217266
132	0x3e60a690	0.21938539
133	0xbf0632aa	-0.5242106
134	0x3f0e92d0	0.5569277
135	0x3dc7fa07	0.09764486
136	0x3e070eb8	0.13189209
137	0xbd972957	-0.07380932
138	0x3e02a5d2	0.12758568
139	0x3e089136	0.13336644
140	0x3e3f2c4a	0.18669239
141	0x3e2feb71	0.17179658
142	0x3db01c43	0.085991405
143	0xbdbb2d67	-0.09139519
144	0xbe925bb2	-0.28585583
145	0x3dfb2477	0.122628145
146	0xbdc7397e	-0.09727763
147	0xbe0ae768	-0.13564837
148	0x3d990161	0.07470966
149	0xbeff056f	-0.49808833
150	0xbec4b1bb	-0.38416848
151	0x3eb2dc46	0.3493368
152	0xbd507c41	-0.050899748
153	0xbd92ec64	-0.07173994
154	0xbe9522f4	-0.2912823
155	0xbe44e955	-0.19229634
156	0xbe88ac9a	-0.26694185
157	0x3e135e2a	0.1439139
158	0xbe8bfabd	-0.27339736
159	0xbcab090f	-0.020878343
160	0x3ec6633f	0.38747594
161	0x3d2a8ba7	0.04163709
162	0xbd76c932	-0.06025047
163	0x3e425539	0.18977822
164	0x3e3441a4	0.17603165
165	0x3d832d58	0.06405133
166	0xbe23e051	-0.16003539
167	0x3e26206b	0.16223304
168	0x3dcca35f	0.09992098
169	0xbe926edd	-0.28600207
170	0xbeb9303a	-0.36169606
171	0xbd8e4b87	-0.069479994
172	0xbe043556	-0.12910971
173	0x3eb02b53	0.34408054
174	0x3b6ac323	0.0035821877
175	0x3e04a497	0.12953411
176	0xbd754e73	-0.059889268
177	0x3ebf5967	0.37372896
178	0x3ea5a70a	0.32354003
179	0xbdce26d1	-0.100659974
180	0x3d6fc706	0.058539413
181	0xbaccc84c	-0.0015623658
182	0x3df3e531	0.11908949
183	0xbe84f2aa	-0.25966388
184	0xbe474fc7	-0.19464026
185	0xbe95527a	-0.29164487
186	0x3de662c2	0.11249305
187	0xbe012208	-0.12610638
188	0x3dfa961b	0.122356616
189	0x3d5eeb02	0.05442334
190	0xbe490674	-0.19631368
191	0xbe1a7995	-0.15085442
192	0xbe47256e	-0.19447872
193	0x3dfc55cd	0.12321053
194	0x3d8dbed2	0.06921162
195	0xbd2a013d	-0.041505087
196	0x3c423074	0.011852372
197	0xbe3455da	-0.17610875
198	0x3da8dec3	0.082456134
199	0xbdfe1a76	-0.12407391
200	0xbd878a51	-0.06618179
201	0x3e0b1a70	0.13584304
202	0xbdc57fd0	-0.09643519
203	0xbea113e8	-0.314605
204	0x3d5e0e4f	0.054212864
205	0xbe2dece5	-0.169849
206	0x3e297ccb	0.16551511
207	0xbe464195	-0.19360955
208	0xbe8f1c20	-0.27951145
209	0xbd3f917b	-0.0467696
210	0xbe294ca6	-0.16533145
211	0xbd53ca5b	-0.051706653
212	0x3dfb4b40	0.12270212
213	0x3dada035	0.08477823
214	0xbed86d8a	-0.42271072
215	0xbde20c08	-0.11037451
216	0x3daddae5	0.084890164
217	0xbe26207f	-0.16223334
218	0xbe33dfc4	-0.17565829
219	0xbe1dbca9	-0.15404
220	0xbcb430a9	-0.02199586
221	0xbd58f804	-0.0529709
222	0xbe978679	-0.29594782
223	0xbeb72841	-0.357729
224	0x3e4f2279	0.20227994
225	0x3ad2ebe3	0.0016092028
226	0x3d53c522	0.051701672
227	0x3d43305d	0.047653545
228	0x3e3deb25	0.18546732
229	0xbcab417c	-0.020905249
230	0x3df784df	0.1208589
231	0xbcda6fff	-0.026664732
232	0x3dade563	0.08491018
233	0x3d684e7f	0.056715485
234	0xbec805e4	-0.39066994
235	0xbe12fb0e	-0.14353582
236	0xbebcff13	-0.36913356
237	0xbe515439	-0.20442285
238	0x3de83d74	0.11339846
239	0x3d8dc83d	0.06922958
240	0xbe311ff9	-0.17297353
241	0x3e4d5fe1	0.20056106
242	0x3e69c109	0.22827543
243	0xbe027a2c	-0.12741917
244	0xbe8ee470	-0.2790866
245	0xbce442bd	-0.027863855
246	0x3e611d54	0.21983844
247	0xbc9783e0	-0.0184955
248	0x3e05e483	0.13075452
249	0xbcefc3ba	-0.029268134
250	0xbebcbd94	-0.36863387
251	0xbc9ce61d	-0.019152695
252	0x3c8776f7	0.016536219
253	0xbe8a2403	-0.269806
254	0xbe55cd2d	-0.2087905
255	0xbc64e03e	-0.013969479

bias f4 [10]
0	0xbe28e3f5	-0.16493209
1	0x3dccf55f	0.10007738
2	0x3c0ee130	0.008720681
3	0xbd598a3f	-0.053110357
4	0x3e00f3ac	0.12592953
5	0x3df2676d	0.11836133
6	0xbd3292a6	-0.043596886
7	0x3da63fbd	0.08117626
8	0xbd7e286a	-0.06205026
9	0xbc6c49cb	-0.0144218905
